Model: "model"
__________________________________________________________________________________________________
Layer (type)                    Output Shape         Param #     Connected to                     
==================================================================================================
input_1 (InputLayer)            [(None, 512, 512, 3) 0                                            
__________________________________________________________________________________________________
conv1_pad (ZeroPadding2D)       (None, 518, 518, 3)  0           input_1[0][0]                    
__________________________________________________________________________________________________
conv1 (Conv2D)                  (None, 256, 256, 64) 9472        conv1_pad[0][0]                  
__________________________________________________________________________________________________
bn_conv1 (BatchNormalizationV1) (None, 256, 256, 64) 256         conv1[0][0]                      
__________________________________________________________________________________________________
activation (Activation)         (None, 256, 256, 64) 0           bn_conv1[0][0]                   
__________________________________________________________________________________________________
pool1_pad (ZeroPadding2D)       (None, 258, 258, 64) 0           activation[0][0]                 
__________________________________________________________________________________________________
max_pooling2d (MaxPooling2D)    (None, 128, 128, 64) 0           pool1_pad[0][0]                  
__________________________________________________________________________________________________
res2a_branch2a (Conv2D)         (None, 128, 128, 64) 4160        max_pooling2d[0][0]              
__________________________________________________________________________________________________
bn2a_branch2a (BatchNormalizati (None, 128, 128, 64) 256         res2a_branch2a[0][0]             
__________________________________________________________________________________________________
activation_1 (Activation)       (None, 128, 128, 64) 0           bn2a_branch2a[0][0]              
__________________________________________________________________________________________________
res2a_branch2b (Conv2D)         (None, 128, 128, 64) 36928       activation_1[0][0]               
__________________________________________________________________________________________________
bn2a_branch2b (BatchNormalizati (None, 128, 128, 64) 256         res2a_branch2b[0][0]             
__________________________________________________________________________________________________
activation_2 (Activation)       (None, 128, 128, 64) 0           bn2a_branch2b[0][0]              
__________________________________________________________________________________________________
res2a_branch2c (Conv2D)         (None, 128, 128, 256 16640       activation_2[0][0]               
__________________________________________________________________________________________________
res2a_branch1 (Conv2D)          (None, 128, 128, 256 16640       max_pooling2d[0][0]              
…
__________________________________________________________________________________________________
add (Add)                       (None, 128, 128, 256 0           bn2a_branch2c[0][0]              
                                                                 bn2a_branch1[0][0]               
__________________________________________________________________________________________________
activation_3 (Activation)       (None, 128, 128, 256 0           add[0][0]                        
__________________________________________________________________________________________________
res2b_branch2a (Conv2D)         (None, 128, 128, 64) 16448       activation_3[0][0]               
__________________________________________________________________________________________________
bn2b_branch2a (BatchNormalizati (None, 128, 128, 64) 256         res2b_branch2a[0][0]             
__________________________________________________________________________________________________
activation_4 (Activation)       (None, 128, 128, 64) 0           bn2b_branch2a[0][0]              
__________________________________________________________________________________________________
res2b_branch2b (Conv2D)         (None, 128, 128, 64) 36928       activation_4[0][0]               
__________________________________________________________________________________________________
bn2b_branch2b (BatchNormalizati (None, 128, 128, 64) 256         res2b_branch2b[0][0]             
__________________________________________________________________________________________________
activation_5 (Activation)       (None, 128, 128, 64) 0           bn2b_branch2b[0][0]              
__________________________________________________________________________________________________
res2b_branch2c (Conv2D)         (None, 128, 128, 256 16640       activation_5[0][0]               
__________________________________________________________________________________________________
bn2b_branch2c (BatchNormalizati (None, 128, 128, 256 1024        res2b_branch2c[0][0]             
…
__________________________________________________________________________________________________
add_2 (Add)                     (None, 128, 128, 256 0           bn2c_branch2c[0][0]              
                                                                 activation_6[0][0]               
__________________________________________________________________________________________________
activation_9 (Activation)       (None, 128, 128, 256 0           add_2[0][0]                      
__________________________________________________________________________________________________
res3a_branch2a (Conv2D)         (None, 64, 64, 128)  32896       activation_9[0][0]               
__________________________________________________________________________________________________
bn3a_branch2a (BatchNormalizati (None, 64, 64, 128)  512         res3a_branch2a[0][0]             
__________________________________________________________________________________________________
activation_10 (Activation)      (None, 64, 64, 128)  0           bn3a_branch2a[0][0]              
__________________________________________________________________________________________________
res3a_branch2b (Conv2D)         (None, 64, 64, 128)  147584      activation_10[0][0]              
__________________________________________________________________________________________________
bn3a_branch2b (BatchNormalizati (None, 64, 64, 128)  512         res3a_branch2b[0][0]             
__________________________________________________________________________________________________
activation_11 (Activation)      (None, 64, 64, 128)  0           bn3a_branch2b[0][0]              
__________________________________________________________________________________________________
res3a_branch2c (Conv2D)         (None, 64, 64, 512)  66048       activation_11[0][0]              
__________________________________________________________________________________________________
res3a_branch1 (Conv2D)          (None, 64, 64, 512)  131584      activation_9[0][0]               
__________________________________________________________________________________________________
bn3a_branch2c (BatchNormalizati (None, 64, 64, 512)  2048        res3a_branch2c[0][0]             
__________________________________________________________________________________________________
bn3a_branch1 (BatchNormalizatio (None, 64, 64, 512)  2048        res3a_branch1[0][0]              
__________________________________________________________________________________________________
add_3 (Add)                     (None, 64, 64, 512)  0           bn3a_branch2c[0][0]              
                                                                 bn3a_branch1[0][0]               
__________________________________________________________________________________________________
activation_12 (Activation)      (None, 64, 64, 512)  0           add_3[0][0]                      
__________________________________________________________________________________________________
res3b_branch2a (Conv2D)         (None, 64, 64, 128)  65664       activation_12[0][0]              
__________________________________________________________________________________________________
bn3b_branch2a (BatchNormalizati (None, 64, 64, 128)  512         res3b_branch2a[0][0]             
__________________________________________________________________________________________________
activation_13 (Activation)      (None, 64, 64, 128)  0           bn3b_branch2a[0][0]              
__________________________________________________________________________________________________
res3b_branch2b (Conv2D)         (None, 64, 64, 128)  147584      activation_13[0][0]              
__________________________________________________________________________________________________
bn3b_branch2b (BatchNormalizati (None, 64, 64, 128)  512         res3b_branch2b[0][0]             
__________________________________________________________________________________________________
activation_14 (Activation)      (None, 64, 64, 128)  0           bn3b_branch2b[0][0]              
__________________________________________________________________________________________________
res3b_branch2c (Conv2D)         (None, 64, 64, 512)  66048       activation_14[0][0]              
__________________________________________________________________________________________________
bn3b_branch2c (BatchNormalizati (None, 64, 64, 512)  2048        res3b_branch2c[0][0]             
__________________________________________________________________________________________________
add_4 (Add)                     (None, 64, 64, 512)  0           bn3b_branch2c[0][0]              
                                                                 activation_12[0][0]              
__________________________________________________________________________________________________
activation_15 (Activation)      (None, 64, 64, 512)  0           add_4[0][0]                      
__________________________________________________________________________________________________
res3c_branch2a (Conv2D)         (None, 64, 64, 128)  65664       activation_15[0][0]              
__________________________________________________________________________________________________
bn3c_branch2a (BatchNormalizati (None, 64, 64, 128)  512         res3c_branch2a[0][0]             
__________________________________________________________________________________________________
activation_16 (Activation)      (None, 64, 64, 128)  0           bn3c_branch2a[0][0]              
__________________________________________________________________________________________________
res3c_branch2b (Conv2D)         (None, 64, 64, 128)  147584      activation_16[0][0]              
__________________________________________________________________________________________________
bn3c_branch2b (BatchNormalizati (None, 64, 64, 128)  512         res3c_branch2b[0][0]             
__________________________________________________________________________________________________
activation_17 (Activation)      (None, 64, 64, 128)  0           bn3c_branch2b[0][0]              
__________________________________________________________________________________________________
res3c_branch2c (Conv2D)         (None, 64, 64, 512)  66048       activation_17[0][0]              
__________________________________________________________________________________________________
bn3c_branch2c (BatchNormalizati (None, 64, 64, 512)  2048        res3c_branch2c[0][0]             
__________________________________________________________________________________________________
add_5 (Add)                     (None, 64, 64, 512)  0           bn3c_branch2c[0][0]              
                                                                 activation_15[0][0]              
__________________________________________________________________________________________________
activation_18 (Activation)      (None, 64, 64, 512)  0           add_5[0][0]                      
__________________________________________________________________________________________________
res3d_branch2a (Conv2D)         (None, 64, 64, 128)  65664       activation_18[0][0]              
__________________________________________________________________________________________________
bn3d_branch2a (BatchNormalizati (None, 64, 64, 128)  512         res3d_branch2a[0][0]             
__________________________________________________________________________________________________
activation_19 (Activation)      (None, 64, 64, 128)  0           bn3d_branch2a[0][0]              
__________________________________________________________________________________________________
res3d_branch2b (Conv2D)         (None, 64, 64, 128)  147584      activation_19[0][0]              
__________________________________________________________________________________________________
bn3d_branch2b (BatchNormalizati (None, 64, 64, 128)  512         res3d_branch2b[0][0]             
__________________________________________________________________________________________________
activation_20 (Activation)      (None, 64, 64, 128)  0           bn3d_branch2b[0][0]              
__________________________________________________________________________________________________
res3d_branch2c (Conv2D)         (None, 64, 64, 512)  66048       activation_20[0][0]              
__________________________________________________________________________________________________
bn3d_branch2c (BatchNormalizati (None, 64, 64, 512)  2048        res3d_branch2c[0][0]             
__________________________________________________________________________________________________
add_6 (Add)                     (None, 64, 64, 512)  0           bn3d_branch2c[0][0]              
                                                                 activation_18[0][0]              
__________________________________________________________________________________________________
activation_21 (Activation)      (None, 64, 64, 512)  0           add_6[0][0]                      
__________________________________________________________________________________________________
res4a_branch2a (Conv2D)         (None, 32, 32, 256)  131328      activation_21[0][0]              
__________________________________________________________________________________________________
bn4a_branch2a (BatchNormalizati (None, 32, 32, 256)  1024        res4a_branch2a[0][0]             
__________________________________________________________________________________________________
activation_22 (Activation)      (None, 32, 32, 256)  0           bn4a_branch2a[0][0]              
__________________________________________________________________________________________________
res4a_branch2b (Conv2D)         (None, 32, 32, 256)  590080      activation_22[0][0]              
__________________________________________________________________________________________________
bn4a_branch2b (BatchNormalizati (None, 32, 32, 256)  1024        res4a_branch2b[0][0]             
__________________________________________________________________________________________________
activation_23 (Activation)      (None, 32, 32, 256)  0           bn4a_branch2b[0][0]              
__________________________________________________________________________________________________
res4a_branch2c (Conv2D)         (None, 32, 32, 1024) 263168      activation_23[0][0]              
__________________________________________________________________________________________________
res4a_branch1 (Conv2D)          (None, 32, 32, 1024) 525312      activation_21[0][0]              
__________________________________________________________________________________________________
bn4a_branch2c (BatchNormalizati (None, 32, 32, 1024) 4096        res4a_branch2c[0][0]             
__________________________________________________________________________________________________
bn4a_branch1 (BatchNormalizatio (None, 32, 32, 1024) 4096        res4a_branch1[0][0]              
__________________________________________________________________________________________________
add_7 (Add)                     (None, 32, 32, 1024) 0           bn4a_branch2c[0][0]              
                                                                 bn4a_branch1[0][0]               
__________________________________________________________________________________________________
activation_24 (Activation)      (None, 32, 32, 1024) 0           add_7[0][0]                      
__________________________________________________________________________________________________
res4b_branch2a (Conv2D)         (None, 32, 32, 256)  262400      activation_24[0][0]              
__________________________________________________________________________________________________
bn4b_branch2a (BatchNormalizati (None, 32, 32, 256)  1024        res4b_branch2a[0][0]             
__________________________________________________________________________________________________
activation_25 (Activation)      (None, 32, 32, 256)  0           bn4b_branch2a[0][0]              
__________________________________________________________________________________________________
res4b_branch2b (Conv2D)         (None, 32, 32, 256)  590080      activation_25[0][0]              
__________________________________________________________________________________________________
bn4b_branch2b (BatchNormalizati (None, 32, 32, 256)  1024        res4b_branch2b[0][0]             
__________________________________________________________________________________________________
activation_26 (Activation)      (None, 32, 32, 256)  0           bn4b_branch2b[0][0]              
__________________________________________________________________________________________________
res4b_branch2c (Conv2D)         (None, 32, 32, 1024) 263168      activation_26[0][0]              
__________________________________________________________________________________________________
bn4b_branch2c (BatchNormalizati (None, 32, 32, 1024) 4096        res4b_branch2c[0][0]             
__________________________________________________________________________________________________
add_8 (Add)                     (None, 32, 32, 1024) 0           bn4b_branch2c[0][0]              
                                                                 activation_24[0][0]              
__________________________________________________________________________________________________
activation_27 (Activation)      (None, 32, 32, 1024) 0           add_8[0][0]                      
__________________________________________________________________________________________________
res4c_branch2a (Conv2D)         (None, 32, 32, 256)  262400      activation_27[0][0]              
__________________________________________________________________________________________________
bn4c_branch2a (BatchNormalizati (None, 32, 32, 256)  1024        res4c_branch2a[0][0]             
__________________________________________________________________________________________________
activation_28 (Activation)      (None, 32, 32, 256)  0           bn4c_branch2a[0][0]              
__________________________________________________________________________________________________
res4c_branch2b (Conv2D)         (None, 32, 32, 256)  590080      activation_28[0][0]              
__________________________________________________________________________________________________
bn4c_branch2b (BatchNormalizati (None, 32, 32, 256)  1024        res4c_branch2b[0][0]             
__________________________________________________________________________________________________
activation_29 (Activation)      (None, 32, 32, 256)  0           bn4c_branch2b[0][0]              
__________________________________________________________________________________________________
res4c_branch2c (Conv2D)         (None, 32, 32, 1024) 263168      activation_29[0][0]              
__________________________________________________________________________________________________
bn4c_branch2c (BatchNormalizati (None, 32, 32, 1024) 4096        res4c_branch2c[0][0]             
__________________________________________________________________________________________________
add_9 (Add)                     (None, 32, 32, 1024) 0           bn4c_branch2c[0][0]              
                                                                 activation_27[0][0]              
__________________________________________________________________________________________________
activation_30 (Activation)      (None, 32, 32, 1024) 0           add_9[0][0]                      
__________________________________________________________________________________________________
res4d_branch2a (Conv2D)         (None, 32, 32, 256)  262400      activation_30[0][0]              
__________________________________________________________________________________________________
bn4d_branch2a (BatchNormalizati (None, 32, 32, 256)  1024        res4d_branch2a[0][0]             
__________________________________________________________________________________________________
activation_31 (Activation)      (None, 32, 32, 256)  0           bn4d_branch2a[0][0]              
__________________________________________________________________________________________________
res4d_branch2b (Conv2D)         (None, 32, 32, 256)  590080      activation_31[0][0]              
__________________________________________________________________________________________________
bn4d_branch2b (BatchNormalizati (None, 32, 32, 256)  1024        res4d_branch2b[0][0]             
__________________________________________________________________________________________________
activation_32 (Activation)      (None, 32, 32, 256)  0           bn4d_branch2b[0][0]              
__________________________________________________________________________________________________
res4d_branch2c (Conv2D)         (None, 32, 32, 1024) 263168      activation_32[0][0]              
__________________________________________________________________________________________________
bn4d_branch2c (BatchNormalizati (None, 32, 32, 1024) 4096        res4d_branch2c[0][0]             
__________________________________________________________________________________________________
add_10 (Add)                    (None, 32, 32, 1024) 0           bn4d_branch2c[0][0]              
                                                                 activation_30[0][0]              
__________________________________________________________________________________________________
activation_33 (Activation)      (None, 32, 32, 1024) 0           add_10[0][0]                     
__________________________________________________________________________________________________
res4e_branch2a (Conv2D)         (None, 32, 32, 256)  262400      activation_33[0][0]              
__________________________________________________________________________________________________
bn4e_branch2a (BatchNormalizati (None, 32, 32, 256)  1024        res4e_branch2a[0][0]             
__________________________________________________________________________________________________
activation_34 (Activation)      (None, 32, 32, 256)  0           bn4e_branch2a[0][0]              
__________________________________________________________________________________________________
res4e_branch2b (Conv2D)         (None, 32, 32, 256)  590080      activation_34[0][0]              
__________________________________________________________________________________________________
bn4e_branch2b (BatchNormalizati (None, 32, 32, 256)  1024        res4e_branch2b[0][0]             
__________________________________________________________________________________________________
activation_35 (Activation)      (None, 32, 32, 256)  0           bn4e_branch2b[0][0]              
__________________________________________________________________________________________________
res4e_branch2c (Conv2D)         (None, 32, 32, 1024) 263168      activation_35[0][0]              
__________________________________________________________________________________________________
bn4e_branch2c (BatchNormalizati (None, 32, 32, 1024) 4096        res4e_branch2c[0][0]             
__________________________________________________________________________________________________
add_11 (Add)                    (None, 32, 32, 1024) 0           bn4e_branch2c[0][0]              
                                                                 activation_33[0][0]              
__________________________________________________________________________________________________
activation_36 (Activation)      (None, 32, 32, 1024) 0           add_11[0][0]                     
__________________________________________________________________________________________________
res4f_branch2a (Conv2D)         (None, 32, 32, 256)  262400      activation_36[0][0]              
__________________________________________________________________________________________________
bn4f_branch2a (BatchNormalizati (None, 32, 32, 256)  1024        res4f_branch2a[0][0]             
__________________________________________________________________________________________________
activation_37 (Activation)      (None, 32, 32, 256)  0           bn4f_branch2a[0][0]              
__________________________________________________________________________________________________
res4f_branch2b (Conv2D)         (None, 32, 32, 256)  590080      activation_37[0][0]              
__________________________________________________________________________________________________
bn4f_branch2b (BatchNormalizati (None, 32, 32, 256)  1024        res4f_branch2b[0][0]             
__________________________________________________________________________________________________
activation_38 (Activation)      (None, 32, 32, 256)  0           bn4f_branch2b[0][0]              
__________________________________________________________________________________________________
res4f_branch2c (Conv2D)         (None, 32, 32, 1024) 263168      activation_38[0][0]              
__________________________________________________________________________________________________
bn4f_branch2c (BatchNormalizati (None, 32, 32, 1024) 4096        res4f_branch2c[0][0]             
__________________________________________________________________________________________________
add_12 (Add)                    (None, 32, 32, 1024) 0           bn4f_branch2c[0][0]              
                                                                 activation_36[0][0]              
__________________________________________________________________________________________________
activation_39 (Activation)      (None, 32, 32, 1024) 0           add_12[0][0]                     
__________________________________________________________________________________________________
res5a_branch2a (Conv2D)         (None, 16, 16, 512)  524800      activation_39[0][0]              
__________________________________________________________________________________________________
bn5a_branch2a (BatchNormalizati (None, 16, 16, 512)  2048        res5a_branch2a[0][0]             
__________________________________________________________________________________________________
activation_40 (Activation)      (None, 16, 16, 512)  0           bn5a_branch2a[0][0]              
__________________________________________________________________________________________________
res5a_branch2b (Conv2D)         (None, 16, 16, 512)  2359808     activation_40[0][0]              
__________________________________________________________________________________________________
bn5a_branch2b (BatchNormalizati (None, 16, 16, 512)  2048        res5a_branch2b[0][0]             
__________________________________________________________________________________________________
activation_41 (Activation)      (None, 16, 16, 512)  0           bn5a_branch2b[0][0]              
__________________________________________________________________________________________________
res5a_branch2c (Conv2D)         (None, 16, 16, 2048) 1050624     activation_41[0][0]              
__________________________________________________________________________________________________
res5a_branch1 (Conv2D)          (None, 16, 16, 2048) 2099200     activation_39[0][0]              
__________________________________________________________________________________________________
bn5a_branch2c (BatchNormalizati (None, 16, 16, 2048) 8192        res5a_branch2c[0][0]             
__________________________________________________________________________________________________
bn5a_branch1 (BatchNormalizatio (None, 16, 16, 2048) 8192        res5a_branch1[0][0]              
__________________________________________________________________________________________________
add_13 (Add)                    (None, 16, 16, 2048) 0           bn5a_branch2c[0][0]              
                                                                 bn5a_branch1[0][0]               
__________________________________________________________________________________________________
activation_42 (Activation)      (None, 16, 16, 2048) 0           add_13[0][0]                     
__________________________________________________________________________________________________
res5b_branch2a (Conv2D)         (None, 16, 16, 512)  1049088     activation_42[0][0]              
__________________________________________________________________________________________________
bn5b_branch2a (BatchNormalizati (None, 16, 16, 512)  2048        res5b_branch2a[0][0]             
__________________________________________________________________________________________________
activation_43 (Activation)      (None, 16, 16, 512)  0           bn5b_branch2a[0][0]              
__________________________________________________________________________________________________
res5b_branch2b (Conv2D)         (None, 16, 16, 512)  2359808     activation_43[0][0]              
__________________________________________________________________________________________________
bn5b_branch2b (BatchNormalizati (None, 16, 16, 512)  2048        res5b_branch2b[0][0]             
__________________________________________________________________________________________________
activation_44 (Activation)      (None, 16, 16, 512)  0           bn5b_branch2b[0][0]              
__________________________________________________________________________________________________
res5b_branch2c (Conv2D)         (None, 16, 16, 2048) 1050624     activation_44[0][0]              
__________________________________________________________________________________________________
bn5b_branch2c (BatchNormalizati (None, 16, 16, 2048) 8192        res5b_branch2c[0][0]             
__________________________________________________________________________________________________
add_14 (Add)                    (None, 16, 16, 2048) 0           bn5b_branch2c[0][0]              
                                                                 activation_42[0][0]              
__________________________________________________________________________________________________
activation_45 (Activation)      (None, 16, 16, 2048) 0           add_14[0][0]                     
__________________________________________________________________________________________________
res5c_branch2a (Conv2D)         (None, 16, 16, 512)  1049088     activation_45[0][0]              
__________________________________________________________________________________________________
bn5c_branch2a (BatchNormalizati (None, 16, 16, 512)  2048        res5c_branch2a[0][0]             
__________________________________________________________________________________________________
activation_46 (Activation)      (None, 16, 16, 512)  0           bn5c_branch2a[0][0]              
__________________________________________________________________________________________________
res5c_branch2b (Conv2D)         (None, 16, 16, 512)  2359808     activation_46[0][0]              
__________________________________________________________________________________________________
bn5c_branch2b (BatchNormalizati (None, 16, 16, 512)  2048        res5c_branch2b[0][0]             
__________________________________________________________________________________________________
activation_47 (Activation)      (None, 16, 16, 512)  0           bn5c_branch2b[0][0]              
__________________________________________________________________________________________________
res5c_branch2c (Conv2D)         (None, 16, 16, 2048) 1050624     activation_47[0][0]              
__________________________________________________________________________________________________
bn5c_branch2c (BatchNormalizati (None, 16, 16, 2048) 8192        res5c_branch2c[0][0]             
__________________________________________________________________________________________________
add_15 (Add)                    (None, 16, 16, 2048) 0           bn5c_branch2c[0][0]              
                                                                 activation_45[0][0]              
__________________________________________________________________________________________________
activation_48 (Activation)      (None, 16, 16, 2048) 0           add_15[0][0]                     
__________________________________________________________________________________________________
conv2d (Conv2D)                 (None, 16, 16, 256)  4718848     activation_48[0][0]              
__________________________________________________________________________________________________
batch_normalization_v2 (BatchNo (None, 16, 16, 256)  1024        conv2d[0][0]                     
__________________________________________________________________________________________________
activation_49 (Activation)      (None, 16, 16, 256)  0           batch_normalization_v2[0][0]     
__________________________________________________________________________________________________
conv2d_1 (Conv2D)               (None, 16, 16, 512)  1180160     activation_49[0][0]              
__________________________________________________________________________________________________
lambda (Lambda)                 [(None, 16, 16, 256) 0           conv2d_1[0][0]                   
__________________________________________________________________________________________________
multiply (Multiply)             (None, 16, 16, 256)  0           activation_49[0][0]              
                                                                 lambda[0][0]                     
__________________________________________________________________________________________________
add_16 (Add)                    (None, 16, 16, 256)  0           multiply[0][0]                   
                                                                 lambda[0][1]                     
__________________________________________________________________________________________________
activation_50 (Activation)      (None, 16, 16, 256)  0           add_16[0][0]                     
__________________________________________________________________________________________________
lambda_1 (Lambda)               (None, 16, 16)       0           activation_50[0][0]              
__________________________________________________________________________________________________
dense (Dense)                   (None, 16, 256)      4352        lambda_1[0][0]                   
__________________________________________________________________________________________________
dense_1 (Dense)                 (None, 16, 256)      65792       dense[0][0]                      
__________________________________________________________________________________________________
multiply_1 (Multiply)           (None, 16, 16, 256)  0           activation_50[0][0]              
                                                                 dense_1[0][0]                    
__________________________________________________________________________________________________
conv2d_2 (Conv2D)               (None, 16, 16, 256)  590080      multiply_1[0][0]                 
__________________________________________________________________________________________________
batch_normalization_v2_1 (Batch (None, 16, 16, 256)  1024        conv2d_2[0][0]                   
__________________________________________________________________________________________________
conv2d_4 (Conv2D)               (None, 16, 16, 256)  4718848     activation_48[0][0]              
__________________________________________________________________________________________________
activation_51 (Activation)      (None, 16, 16, 256)  0           batch_normalization_v2_1[0][0]   
__________________________________________________________________________________________________
batch_normalization_v2_2 (Batch (None, 16, 16, 256)  1024        conv2d_4[0][0]                   
__________________________________________________________________________________________________
conv2d_3 (Conv2D)               (None, 16, 16, 512)  1180160     activation_51[0][0]              
__________________________________________________________________________________________________
activation_53 (Activation)      (None, 16, 16, 256)  0           batch_normalization_v2_2[0][0]   
__________________________________________________________________________________________________
lambda_2 (Lambda)               [(None, 16, 16, 256) 0           conv2d_3[0][0]                   
__________________________________________________________________________________________________
lambda_3 (Lambda)               (None, 16, 16)       0           activation_53[0][0]              
__________________________________________________________________________________________________
multiply_2 (Multiply)           (None, 16, 16, 256)  0           activation_51[0][0]              
                                                                 lambda_2[0][0]                   
__________________________________________________________________________________________________
dense_2 (Dense)                 (None, 16, 256)      4352        lambda_3[0][0]                   
__________________________________________________________________________________________________
conv2d_5 (Conv2D)               (None, 32, 32, 256)  262400      activation_39[0][0]              
__________________________________________________________________________________________________
add_17 (Add)                    (None, 16, 16, 256)  0           multiply_2[0][0]                 
                                                                 lambda_2[0][1]                   
__________________________________________________________________________________________________
dense_3 (Dense)                 (None, 16, 256)      65792       dense_2[0][0]                    
__________________________________________________________________________________________________
batch_normalization_v2_3 (Batch (None, 32, 32, 256)  1024        conv2d_5[0][0]                   
__________________________________________________________________________________________________
activation_52 (Activation)      (None, 16, 16, 256)  0           add_17[0][0]                     
__________________________________________________________________________________________________
multiply_3 (Multiply)           (None, 16, 16, 256)  0           dense_3[0][0]                    
                                                                 activation_53[0][0]              
__________________________________________________________________________________________________
activation_54 (Activation)      (None, 32, 32, 256)  0           batch_normalization_v2_3[0][0]   
__________________________________________________________________________________________________
conv2d_6 (Conv2D)               (None, 16, 16, 256)  590080      activation_52[0][0]              
__________________________________________________________________________________________________
conv2d_8 (Conv2D)               (None, 16, 16, 256)  590080      multiply_3[0][0]                 
__________________________________________________________________________________________________
activation_55 (Activation)      (None, 16, 16, 256)  0           conv2d_6[0][0]                   
__________________________________________________________________________________________________
conv2d_7 (Conv2D)               (None, 32, 32, 256)  590080      activation_54[0][0]              
__________________________________________________________________________________________________
activation_57 (Activation)      (None, 16, 16, 256)  0           conv2d_8[0][0]                   
__________________________________________________________________________________________________
up_sampling2d (UpSampling2D)    (None, 32, 32, 256)  0           activation_55[0][0]              
__________________________________________________________________________________________________
up_sampling2d_1 (UpSampling2D)  (None, 32, 32, 256)  0           activation_52[0][0]              
__________________________________________________________________________________________________
activation_56 (Activation)      (None, 32, 32, 256)  0           conv2d_7[0][0]                   
__________________________________________________________________________________________________
up_sampling2d_2 (UpSampling2D)  (None, 32, 32, 256)  0           activation_57[0][0]              
__________________________________________________________________________________________________
multiply_4 (Multiply)           (None, 32, 32, 256)  0           activation_54[0][0]              
                                                                 up_sampling2d[0][0]              
__________________________________________________________________________________________________
multiply_5 (Multiply)           (None, 32, 32, 256)  0           up_sampling2d_1[0][0]            
                                                                 activation_56[0][0]              
__________________________________________________________________________________________________
multiply_6 (Multiply)           (None, 32, 32, 256)  0           up_sampling2d_2[0][0]            
                                                                 activation_54[0][0]              
__________________________________________________________________________________________________
concatenate (Concatenate)       (None, 32, 32, 768)  0           multiply_4[0][0]                 
                                                                 multiply_5[0][0]                 
                                                                 multiply_6[0][0]                 
__________________________________________________________________________________________________
conv2d_9 (Conv2D)               (None, 32, 32, 256)  1769728     concatenate[0][0]                
__________________________________________________________________________________________________
batch_normalization_v2_4 (Batch (None, 32, 32, 256)  1024        conv2d_9[0][0]                   
__________________________________________________________________________________________________
activation_58 (Activation)      (None, 32, 32, 256)  0           batch_normalization_v2_4[0][0]   
__________________________________________________________________________________________________
conv2d_11 (Conv2D)              (None, 32, 32, 256)  590080      activation_58[0][0]              
__________________________________________________________________________________________________
conv2d_13 (Conv2D)              (None, 16, 16, 256)  4718848     activation_48[0][0]              
__________________________________________________________________________________________________
batch_normalization_v2_5 (Batch (None, 32, 32, 256)  1024        conv2d_11[0][0]                  
__________________________________________________________________________________________________
batch_normalization_v2_6 (Batch (None, 16, 16, 256)  1024        conv2d_13[0][0]                  
__________________________________________________________________________________________________
activation_59 (Activation)      (None, 32, 32, 256)  0           batch_normalization_v2_5[0][0]   
__________________________________________________________________________________________________
activation_61 (Activation)      (None, 16, 16, 256)  0           batch_normalization_v2_6[0][0]   
__________________________________________________________________________________________________
conv2d_12 (Conv2D)              (None, 32, 32, 512)  1180160     activation_59[0][0]              
__________________________________________________________________________________________________
lambda_5 (Lambda)               (None, 16, 16)       0           activation_61[0][0]              
__________________________________________________________________________________________________
lambda_4 (Lambda)               [(None, 32, 32, 256) 0           conv2d_12[0][0]                  
__________________________________________________________________________________________________
dense_4 (Dense)                 (None, 16, 256)      4352        lambda_5[0][0]                   
__________________________________________________________________________________________________
multiply_7 (Multiply)           (None, 32, 32, 256)  0           activation_59[0][0]              
                                                                 lambda_4[0][0]                   
__________________________________________________________________________________________________
dense_5 (Dense)                 (None, 16, 256)      65792       dense_4[0][0]                    
__________________________________________________________________________________________________
conv2d_14 (Conv2D)              (None, 64, 64, 256)  131328      activation_21[0][0]              
__________________________________________________________________________________________________
add_18 (Add)                    (None, 32, 32, 256)  0           multiply_7[0][0]                 
                                                                 lambda_4[0][1]                   
__________________________________________________________________________________________________
multiply_8 (Multiply)           (None, 16, 16, 256)  0           dense_5[0][0]                    
                                                                 activation_61[0][0]              
__________________________________________________________________________________________________
batch_normalization_v2_7 (Batch (None, 64, 64, 256)  1024        conv2d_14[0][0]                  
__________________________________________________________________________________________________
activation_60 (Activation)      (None, 32, 32, 256)  0           add_18[0][0]                     
__________________________________________________________________________________________________
up_sampling2d_3 (UpSampling2D)  (None, 32, 32, 256)  0           multiply_8[0][0]                 
__________________________________________________________________________________________________
activation_62 (Activation)      (None, 64, 64, 256)  0           batch_normalization_v2_7[0][0]   
__________________________________________________________________________________________________
conv2d_15 (Conv2D)              (None, 32, 32, 256)  590080      activation_60[0][0]              
__________________________________________________________________________________________________
conv2d_17 (Conv2D)              (None, 32, 32, 256)  590080      up_sampling2d_3[0][0]            
__________________________________________________________________________________________________
activation_63 (Activation)      (None, 32, 32, 256)  0           conv2d_15[0][0]                  
__________________________________________________________________________________________________
conv2d_16 (Conv2D)              (None, 64, 64, 256)  590080      activation_62[0][0]              
__________________________________________________________________________________________________
activation_65 (Activation)      (None, 32, 32, 256)  0           conv2d_17[0][0]                  
__________________________________________________________________________________________________
up_sampling2d_4 (UpSampling2D)  (None, 64, 64, 256)  0           activation_63[0][0]              
__________________________________________________________________________________________________
up_sampling2d_5 (UpSampling2D)  (None, 64, 64, 256)  0           activation_60[0][0]              
__________________________________________________________________________________________________
activation_64 (Activation)      (None, 64, 64, 256)  0           conv2d_16[0][0]                  
__________________________________________________________________________________________________
up_sampling2d_6 (UpSampling2D)  (None, 64, 64, 256)  0           activation_65[0][0]              
__________________________________________________________________________________________________
multiply_9 (Multiply)           (None, 64, 64, 256)  0           activation_62[0][0]              
                                                                 up_sampling2d_4[0][0]            
__________________________________________________________________________________________________
multiply_10 (Multiply)          (None, 64, 64, 256)  0           up_sampling2d_5[0][0]            
                                                                 activation_64[0][0]              
__________________________________________________________________________________________________
multiply_11 (Multiply)          (None, 64, 64, 256)  0           up_sampling2d_6[0][0]            
                                                                 activation_62[0][0]              
__________________________________________________________________________________________________
concatenate_1 (Concatenate)     (None, 64, 64, 768)  0           multiply_9[0][0]                 
                                                                 multiply_10[0][0]                
                                                                 multiply_11[0][0]                
__________________________________________________________________________________________________
conv2d_18 (Conv2D)              (None, 64, 64, 256)  1769728     concatenate_1[0][0]              
__________________________________________________________________________________________________
batch_normalization_v2_8 (Batch (None, 64, 64, 256)  1024        conv2d_18[0][0]                  
__________________________________________________________________________________________________
activation_66 (Activation)      (None, 64, 64, 256)  0           batch_normalization_v2_8[0][0]   
__________________________________________________________________________________________________
conv2d_22 (Conv2D)              (None, 16, 16, 256)  4718848     activation_48[0][0]              
__________________________________________________________________________________________________
conv2d_20 (Conv2D)              (None, 64, 64, 256)  590080      activation_66[0][0]              
__________________________________________________________________________________________________
batch_normalization_v2_10 (Batc (None, 16, 16, 256)  1024        conv2d_22[0][0]                  
__________________________________________________________________________________________________
batch_normalization_v2_9 (Batch (None, 64, 64, 256)  1024        conv2d_20[0][0]                  
__________________________________________________________________________________________________
activation_69 (Activation)      (None, 16, 16, 256)  0           batch_normalization_v2_10[0][0]  
__________________________________________________________________________________________________
activation_67 (Activation)      (None, 64, 64, 256)  0           batch_normalization_v2_9[0][0]   
__________________________________________________________________________________________________
lambda_7 (Lambda)               (None, 16, 16)       0           activation_69[0][0]              
__________________________________________________________________________________________________
conv2d_21 (Conv2D)              (None, 64, 64, 512)  1180160     activation_67[0][0]              
__________________________________________________________________________________________________
dense_6 (Dense)                 (None, 16, 256)      4352        lambda_7[0][0]                   
__________________________________________________________________________________________________
lambda_6 (Lambda)               [(None, 64, 64, 256) 0           conv2d_21[0][0]                  
__________________________________________________________________________________________________
dense_7 (Dense)                 (None, 16, 256)      65792       dense_6[0][0]                    
__________________________________________________________________________________________________
multiply_12 (Multiply)          (None, 64, 64, 256)  0           activation_67[0][0]              
                                                                 lambda_6[0][0]                   
__________________________________________________________________________________________________
multiply_13 (Multiply)          (None, 16, 16, 256)  0           dense_7[0][0]                    
                                                                 activation_69[0][0]              
__________________________________________________________________________________________________
conv2d_23 (Conv2D)              (None, 128, 128, 256 65792       activation_9[0][0]               
__________________________________________________________________________________________________
add_19 (Add)                    (None, 64, 64, 256)  0           multiply_12[0][0]                
                                                                 lambda_6[0][1]                   
__________________________________________________________________________________________________
up_sampling2d_7 (UpSampling2D)  (None, 32, 32, 256)  0           multiply_13[0][0]                
__________________________________________________________________________________________________
batch_normalization_v2_11 (Batc (None, 128, 128, 256 1024        conv2d_23[0][0]                  
__________________________________________________________________________________________________
activation_68 (Activation)      (None, 64, 64, 256)  0           add_19[0][0]                     
__________________________________________________________________________________________________
up_sampling2d_8 (UpSampling2D)  (None, 64, 64, 256)  0           up_sampling2d_7[0][0]            
__________________________________________________________________________________________________
activation_70 (Activation)      (None, 128, 128, 256 0           batch_normalization_v2_11[0][0]  
__________________________________________________________________________________________________
conv2d_24 (Conv2D)              (None, 64, 64, 256)  590080      activation_68[0][0]              
__________________________________________________________________________________________________
conv2d_26 (Conv2D)              (None, 64, 64, 256)  590080      up_sampling2d_8[0][0]            
__________________________________________________________________________________________________
activation_71 (Activation)      (None, 64, 64, 256)  0           conv2d_24[0][0]                  
__________________________________________________________________________________________________
conv2d_25 (Conv2D)              (None, 128, 128, 256 590080      activation_70[0][0]              
__________________________________________________________________________________________________
activation_73 (Activation)      (None, 64, 64, 256)  0           conv2d_26[0][0]                  
__________________________________________________________________________________________________
up_sampling2d_9 (UpSampling2D)  (None, 128, 128, 256 0           activation_71[0][0]              
__________________________________________________________________________________________________
up_sampling2d_10 (UpSampling2D) (None, 128, 128, 256 0           activation_68[0][0]              
…
                                                                 lambda_8[0][1]                   
__________________________________________________________________________________________________
activation_76 (Activation)      (None, 128, 128, 256 0           add_20[0][0]                     
__________________________________________________________________________________________________
up_sampling2d_12 (UpSampling2D) (None, 256, 256, 256 0           activation_76[0][0]              
__________________________________________________________________________________________________
conv2d_31 (Conv2D)              (None, 256, 256, 64) 147520      up_sampling2d_12[0][0]           
__________________________________________________________________________________________________
batch_normalization_v2_14 (Batc (None, 256, 256, 64) 256         conv2d_31[0][0]                  
__________________________________________________________________________________________________
activation_77 (Activation)      (None, 256, 256, 64) 0           batch_normalization_v2_14[0][0]  
__________________________________________________________________________________________________
up_sampling2d_13 (UpSampling2D) (None, 512, 512, 64) 0           activation_77[0][0]              
__________________________________________________________________________________________________
conv2d_10 (Conv2D)              (None, 32, 32, 1)    2305        activation_58[0][0]              
__________________________________________________________________________________________________
conv2d_19 (Conv2D)              (None, 64, 64, 1)    2305        activation_66[0][0]              
__________________________________________________________________________________________________
conv2d_28 (Conv2D)              (None, 128, 128, 1)  2305        activation_74[0][0]              
__________________________________________________________________________________________________
conv2d_32 (Conv2D)              (None, 512, 512, 1)  577         up_sampling2d_13[0][0]           
__________________________________________________________________________________________________
aux1 (Activation)               (None, 32, 32, 1)    0           conv2d_10[0][0]                  
__________________________________________________________________________________________________
aux2 (Activation)               (None, 64, 64, 1)    0           conv2d_19[0][0]                  
__________________________________________________________________________________________________
aux3 (Activation)               (None, 128, 128, 1)  0           conv2d_28[0][0]                  
__________________________________________________________________________________________________
dom (Activation)                (None, 512, 512, 1)  0           conv2d_32[0][0]                  
==================================================================================================
Total params: 62,253,828
Trainable params: 62,193,412
Non-trainable params: 60,416
__________________________________________________________________________________________________
